…
 W), depth=4)\n\n[16:58:15] INFO - Using device: cuda\n\n\ncuda\n{'_target_': 'nimrod.models.conv.ConvNet', 'n_features': [1, 8, 16, 32, 64], 'num_classes': 10, 'kernel_size': 3, 'bias': True, 'normalization': None, 'activation': {'_target_': 'hydra.utils.get_class', 'path': 'torch.nn.ReLU'}}\n\n\n==========================================================================================\nLayer (type:depth-idx)                   Output Shape              Param #\n==========================================================================================\nConvNet                                  [64, 10]                  --\n├─Sequential: 1-1                        [64, 10]                  --\n│    └─ConvLayer: 2-1                    [64, 8, 14, 14]           --\n│    │    └─Sequential: 3-1              [64, 8, 14, 14]           --\n│    │    │    └─Conv2d: 4-1             [64, 8, 14, 14]           80\n│    │    │    └─ReLU: 4-2               [64, 8, 14, 14]           --\n│    └─ConvLayer: 2-2                    [64, 16, 7, 7]            --\n│    │    └─Sequential: 3-2              [64, 16, 7, 7]            --\n│    │    │    └─Conv2d: 4-3             [64, 16, 7, 7]            1,168\n│    │    │    └─ReLU: 4-4               [64, 16, 7, 7]            --\n│    └─ConvLayer: 2-3                    [64, 32, 4, 4]            --\n│    │    └─Sequential: 3-3              [64, 32, 4, 4]            --\n│    │    │    └─Conv2d: 4-5             [64, 32, 4, 4]            4,640\n│    │    │    └─ReLU: 4-6               [64, 32, 4, 4]            --\n│    └─ConvLayer: 2-4                    [64, 64, 2, 2]            --\n│    │    └─Sequential: 3-4              [64, 64, 2, 2]            --\n│    │    │    └─Conv2d: 4-7             [64, 64, 2, 2]            18,496\n│    │    │    └─ReLU: 4-8               [64, 64, 2, 2]            --\n│    └─ConvLayer: 2-5                    [64, 10, 1, 1]            --\n│    │    └─Sequential: 3-5              [64, 10, 1, 1]            --\n│    │    │    └─Conv2d: 4-9             [64, 10, 1, 1]            5,770\n│    └─Flatten: 2-6                      [64, 10]                  --\n==========================================================================================\nTotal params: 30,154\nTrainable params: 30,154\nNon-trainable params: 0\nTotal mult-adds (Units.MEGABYTES): 14.52\n==========================================================================================\nInput size (MB): 0.20\nForward/backward pass size (MB): 1.60\nParams size (MB): 0.12\nEstimated Tot
…
l')\nmodel = instantiate(cfg)\n\n[13:32:35] INFO - ConvNetX: init\n[13:32:35] INFO - Classifier: init\n\n\n\nB, C, H, W = 64, 1, 28, 28\nX = torch.rand(B, C, H, W)\nX.shape\nprint(model(X).shape)\n\ntorch.Size([64, 10])\n\n\n\nsummary(model, input_size=(B, C, H, W), depth=5)\n\n===============================================================================================\nLayer (type:depth-idx)                        Output Shape              Param #\n===============================================================================================\nConvNetX                                      [64, 10]                  --\n├─ConvNet: 1-1                                [64, 10]                  --\n│    └─Sequential: 2-1                        [64, 10]                  --\n│    │    └─ConvLayer: 3-1                    [64, 8, 14, 14]           --\n│    │    │    └─Sequential: 4-1              [64, 8, 14, 14]           --\n│    │    │    │    └─Conv2d: 5-1             [64, 8, 14, 14]           72\n│    │    │    │    └─BatchNorm2d: 5-2        [64, 8, 14, 14]           16\n│    │    │    │    └─ReLU: 5-3               [64, 8, 14, 14]           --\n│    │    └─ConvLayer: 3-2                    [64, 16, 7, 7]            --\n│    │    │    └─Sequential: 4-2              [64, 16, 7, 7]            --\n│    │    │    │    └─Conv2d: 5-4             [64, 16, 7, 7]            1,152\n│    │    │    │    └─BatchNorm2d: 5-5        [64, 16, 7, 7]            32\n│    │    │    │    └─ReLU: 5-6               [64, 16, 7, 7]            --\n│    │    └─ConvLayer: 3-3                    [64, 32, 4, 4]            --\n│    │    │    └─Sequential: 4-3              [64, 32, 4, 4]            --\n│    │    │    │    └─Conv2d: 5-7             [64, 32, 4, 4]            4,608\n│    │    │    │    └─BatchNorm2d: 5-8        [64, 32, 4, 4]            64\n│    │    │    │    └─ReLU: 5-9               [64, 32, 4, 4]            --\n│    │    └─ConvLayer: 3-4                    [64, 64, 2, 2]            --\n│    │    │    └─Sequential: 4-4              [64, 64, 2, 2]            --\n│    │    │    │    └─Conv2d: 5-10            [64, 64, 2, 2]            18,432\n│    │    │    │    └─BatchNorm2d: 5-11       [64, 64, 2, 2]            128\n│    │    │    │    └─ReLU: 5-12              [64, 64, 2, 2]            --\n│    │    └─ConvLayer: 3-5                    [64, 10, 1, 1]            --\n│    │    │    └─Sequential: 4-5              [64, 10, 1, 1]            --\n│    │    │    │    └─Conv2d: 5-13            [64, 10, 1, 1]            5,770\n│    │    └─Flatten: 3-6                      [64, 10]                  --\n===============================================================================================\nTotal params: 30,274\nTrainable params: 30,274\nNon-trainable params: 0\nTotal mult-adds (Units.MEGABYTES): 14.34\n===============================================================================================\nInput size (MB): 0.20\nForward/backward pass size (MB): 3.20\nParams size (MB): 0.12\nEst
…
