…
nput_size=(1, 3, 32, 32), depth=2)\n\n[11:14:43] WARNING - setting conv bias back to False as Batchnorm is used\n[11:14:43] WARNING - setting conv bias back to False as Batchnorm is used\n[11:14:43] WARNING - setting conv bias back to False as Batchnorm is used\n\n\ntorch.Size([1, 8, 16, 16])\n\n\n==========================================================================================\nLayer (type:depth-idx)                   Output Shape              Param #\n==========================================================================================\nResBlock                                 [1, 8, 16, 16]            --\n├─Sequential: 1-1                        [1, 8, 16, 16]            --\n│    └─ConvBlock: 2-1                    [1, 8, 32, 32]            232\n│    └─ConvBlock: 2-2                    [1, 8, 16, 16]            592\n├─AvgPool2d: 1-2                         [1, 3, 16, 16]            --\n├─ConvBlock: 1-3                         [1, 8, 16, 16]            --\n│    └─Sequential: 2-3                   [1, 8, 16, 16]            40\n├─LeakyReLU: 1-4                         [1, 8, 16, 16]            --\n==========================================================================================\nTotal params: 864\nTrainable params: 864\nNon-trainable params: 0\nTotal mult-adds (Units.MEGABYTES): 0.37\n==========================================================================================\nInput size (MB): 0.01\nForward/backward pass size (MB): 0.20\nParams size (MB): 0.00\nEstimated Total Size (MB): 0.21\n=========================================================================================="
…
ed\n[14:43:51] WARNING - setting conv bias back to False as Batchnorm is used\n[14:43:51] WARNING - setting conv bias back to False as Batchnorm is used\n[14:43:51] WARNING - setting conv bias back to False as Batchnorm is used\n\n\ntorch.Size([64, 40])\n\n\n====================================================================================================\nLayer (type:depth-idx)                             Output Shape              Param #\n====================================================================================================\nResNet                                             [64, 40]                  --\n├─Sequential: 1-1                                  [64, 40]                  --\n│    └─ResBlock: 2-1                               [64, 8, 28, 28]           --\n│    │    └─Sequential: 3-1                        [64, 8, 28, 28]           --\n│    │    │    └─ConvBlock: 4-1                    [64, 8, 28, 28]           --\n│    │    │    │    └─Sequential: 5-1              [64, 8, 28, 28]           --\n│    │    │    │    │    └─Conv2d: 6-1             [64, 8, 28, 28]           72\n│    │    │    │    │    └─BatchNorm2d: 6-2        [64, 8, 28, 28]           16\n│    │    │    │    │    └─ReLU: 6-3               [64, 8, 28, 28]           --\n│    │    │    └─ConvBlock: 4-2                    [64, 8, 28, 28]           --\n│    │    │    │    └─Sequential: 5-2              [64, 8, 28, 28]           --\n│    │    │    │    │    └─Conv2d: 6-4             [64, 8, 28, 28]           576\n│    │    │    │    │    └─BatchNorm2d: 6-5        [64, 8, 28, 28]           16\n│    │    └─Identity: 3-2                          [64, 1, 28, 28]           --\n│    │    └─ConvBlock: 3-3                         [64, 8, 28, 28]           --\n│    │    │    └─Sequential: 4-3                   [64, 8, 28, 28]           --\n│    │    │    │    └─Conv2d: 5-3                  [64, 8, 28, 28]           8\n│    │    │    │    └─BatchNorm2d: 5-4             [64, 8, 28, 28]           16\n│    │    └─ReLU: 3-4                              [64, 8, 28, 28]           --\n│    └─ResBlock: 2-2                               [64, 16, 14, 14]          --\n│    │    └─Sequential: 3-5                        [64, 16, 14, 14]          --\n│    │    │    └─ConvBlock: 4-4                    [64, 16, 28, 28]          --\n│    │    │    │    └─Sequential: 5-5              [64, 16, 28, 28]          --\n│    │    │    │    │    └─Conv2d: 6-6             [64, 16, 28, 28]          1,152\n│    │    │    │    │    └─BatchNorm2d: 6-7        [64, 16, 28, 28]          32\n│    │    │    │    │    └─ReLU: 6-8               [64, 16, 28, 28]          --\n│    │    │    └─ConvBlock: 4-5                    [64, 16, 14, 14]          --\n│    │    │    │    └─Sequential: 5-6              [64, 16, 14, 14]          --\n│    │    │    │    │    └─Conv2d: 6-9             [64, 16, 14, 14]          2,304\n│    │    │    │    │    └─BatchNorm2d: 6-10       [64, 16, 14, 14]          32\n│    │    └─AvgPool2d: 3-6                         [64, 8, 14, 14]           --\n│    │    └─ConvBlock: 3-7                         [64, 16, 14, 14]          --\n│    │    │    └─Sequential: 4-6                   [64, 16, 14, 14]          --\n│    │    │    │    └─Conv2d: 5-7                  [64, 16, 14, 14]          128\n│    │    │    │    └─BatchNorm2d: 5-8             [64, 16, 14, 14]          32\n│    │    └─ReLU: 3-8                              [64, 16, 14, 14]          --\n│    └─ResBlock: 2-3                               [64, 32, 7, 7]            --\n│    │    └─Sequential: 3-9                        [64, 32, 7, 7]            --\n│    │    │    └─ConvBlock: 4-7                    [64, 32, 14, 14]          --\n│    │    │    │    └─Sequential: 5-9              [64, 32, 14, 14]          --\n│    │    │    │    │    └─Conv2d: 6-11            [64, 32, 14, 14]          4,608\n│    │    │    │    │    └─BatchNorm2d: 6-12       [64, 32, 14, 14]          64\n│    │    │    │    │    └─ReLU: 6-13              [64, 32, 14, 14]          --\n│    │    │    └─ConvBlock: 4-8                    [64, 32, 7, 7]            --\n│    │    │    │    └─Sequential: 5-10             [64, 32, 7, 7]            --\n│    │    │    │    │    └─Conv2d: 6-14            [64, 32, 7, 7]            9,216\n│    │    │    │    │    └─BatchNorm2d: 6-15       [64, 32, 7, 7]            64\n│    │    └─AvgPool2d: 3-10                        [64, 16, 7, 7]            --\n│    │    └─ConvBlock: 3-11                        [64, 32, 7, 7]            --\n│    │    │    └─Sequential: 4-9                   [64, 32, 7, 7]            --\n│    │    │    │    └─Conv2d: 5-11                 [64, 32, 7, 7]            512\n│    │    │    │    └─BatchNorm2d: 5-12            [64, 32, 7, 7]            64\n│    │    └─ReLU: 3-12                             [64, 32, 7, 7]            --\n│    └─ResBlock: 2-4                               [64, 16, 4, 4]            --\n│    │    └─Sequential: 3-13                       [64, 16, 4, 4]            --\n│    │    │    └─ConvBlock: 4-10                   [64, 16, 7, 7]            --\n│    │    │    │    └─Sequential: 5-13             [64, 16, 7, 7]            --\n│    │    │    │    │    └─Conv2d: 6-16            [64, 16, 7, 7]            4,608\n│    │    │    │    │    └─BatchNorm2d: 6-17       [64, 16, 7, 7]            32\n│    │    │    │    │    └─ReLU: 6-18              [64, 16, 7, 7]            --\n│    │    │    └─ConvBlock: 4-11                   [64, 16, 4, 4]            --\n│    │    │    │    └─Sequential: 5-14             [64, 16, 4, 4]            --\n│    │    │    │    │    └─Conv2d: 6-19            [64, 16, 4, 4]            2,304\n│    │    │    │    │    └─BatchNorm2d: 6-20       [64, 16, 4, 4]            32\n│    │    └─AvgPool2d: 3-14                        [64, 32, 4, 4]            --\n│    │    └─ConvBlock: 3-15                        [64, 16, 4, 4]            --\n│    │    │    └─Sequential: 4-12                  [64, 16, 4, 4]            --\n│    │    │    │    └─Conv2d: 5-15                 [64, 16, 4, 4]            512\n│    │    │    │    └─BatchNorm2d: 5-16            [64, 16, 4, 4]            32\n│    │    └─ReLU: 3-16                             [64, 16, 4, 4]            --\n│    └─ResBlock: 2-5                               [64, 10, 2, 2]            --\n│    │    └─Sequential: 3-17                       [64, 10, 2, 2]            --\n│    │    │    └─ConvBlock: 4-13                   [64, 10, 4, 4]            --\n│    │    │    │    └─Sequential: 5-17             [64, 10, 4, 4]            --\n│    │    │    │    │    └─Conv2d: 6-21            [64, 10, 4, 4]            1,440\n│    │    │    │    │    └─BatchNorm2d: 6-22       [64, 10, 4, 4]            20\n│    │    │    │    │    └─ReLU: 6-23              [64, 10, 4, 4]            --\n│    │    │    └─ConvBlock: 4-14                   [64, 10, 2, 2]            --\n│    │    │    │    └─Sequential: 5-18             [64, 10, 2, 2]            --\n│    │    │    │    │    └─Conv2d: 6-24            [64, 10, 2, 2]            900\n│    │    │    │    │    └─BatchNorm2d: 6-25       [64, 10, 2, 2]            20\n│    │    └─AvgPool2d: 3-18                        [64, 16, 2, 2]            --\n│    │    └─ConvBlock: 3-19                        [64, 10, 2, 2]            --\n│    │    │    └─Sequential: 4-15                  [64, 10, 2, 2]            --\n│    │    │    │    └─Conv2d: 5-19                 [64, 10, 2, 2]            160\n│    │    │    │    └─BatchNorm2d: 5-20            [64, 10, 2, 2]            20\n│    │    └─ReLU: 3-20                             [64, 10, 2, 2]            --\n│    └─Flatten: 2-6                                [64, 40]                  --\n====================================================================================================\nTotal params: 28,992\nTrainable params: 28,992\nNon-trainable params: 0\nTotal mult-adds (Units.MEGABYTES): 228.65\n====================================================================================================\nInput size (MB): 0.20\nForward/backward pass size (MB): 49.74\nParams size (MB): 0.12\nEstimated Total Size (MB): 50.06\n===================================================================================================="
…
:209: Attribute 'nnet' is an instance of `nn.Module` and is already saved during checkpointing. It is recommended to ignore them using `self.save_hyperparameters(ignore=['nnet'])`.\n\n\n\nsummary(nnet, input_size=(B, C, H, W), depth=5)\n\n=========================================================================================================\nLayer (type:depth-idx)                                  Output Shape              Param #\n=========================================================================================================\nResNetX                                                 [64, 40]                  --\n├─ResNet: 1-1                                           [64, 40]                  --\n│    └─Sequential: 2-1                                  [64, 40]                  --\n│    │    └─ResBlock: 3-1                               [64, 8, 28, 28]           --\n│    │    │    └─Sequential: 4-1                        [64, 8, 28, 28]           --\n│    │    │    │    └─ConvBlock: 5-1                    [64, 8, 28, 28]           88\n│    │    │    │    └─ConvBlock: 5-2                    [64, 8, 28, 28]           592\n│    │    │    └─Identity: 4-2                          [64, 1, 28, 28]           --\n│    │    │    └─ConvBlock: 4-3                         [64, 8, 28, 28]           --\n│    │    │    │    └─Sequential: 5-3                   [64, 8, 28, 28]           24\n│    │    │    └─LeakyReLU: 4-4                         [64, 8, 28, 28]           --\n│    │    └─ResBlock: 3-2                               [64, 16, 14, 14]          --\n│    │    │    └─Sequential: 4-5                        [64, 16, 14, 14]          --\n│    │    │    │    └─ConvBlock: 5-4                    [64, 16, 28, 28]          1,184\n│    │    │    │    └─ConvBlock: 5-5                    [64, 16, 14, 14]          2,336\n│    │    │    └─AvgPool2d: 4-6                         [64, 8, 14, 14]           --\n│    │    │    └─ConvBlock: 4-7                         [64, 16, 14, 14]          --\n│    │    │    │    └─Sequential: 5-6                   [64, 16, 14, 14]          160\n│    │    │    └─LeakyReLU: 4-8                         [64, 16, 14, 14]          --\n│    │    └─ResBlock: 3-3                               [64, 32, 7, 7]            --\n│    │    │    └─Sequential: 4-9                        [64, 32, 7, 7]            --\n│    │    │    │    └─ConvBlock: 5-7                    [64, 32, 14, 14]          4,672\n│    │    │    │    └─ConvBlock: 5-8                    [64, 32, 7, 7]            9,280\n│    │    │    └─AvgPool2d: 4-10                        [64, 16, 7, 7]            --\n│    │    │    └─ConvBlock: 4-11                        [64, 32, 7, 7]            --\n│    │    │    │    └─Sequential: 5-9                   [64, 32, 7, 7]            576\n│    │    │    └─LeakyReLU: 4-12                        [64, 32, 7, 7]            --\n│    │    └─ResBlock: 3-4                               [64, 16, 4, 4]            --\n│    │    │    └─Sequential: 4-13                       [64, 16, 4, 4]            --\n│    │    │    │    └─ConvBlock: 5-10                   [64, 16, 7, 7]            4,640\n│    │    │    │    └─ConvBlock: 5-11                   [64, 16, 4, 4]            2,336\n│    │    │    └─AvgPool2d: 4-14                        [64, 32, 4, 4]            --\n│    │    │    └─ConvBlock: 4-15                        [64, 16, 4, 4]            --\n│    │    │    │    └─Sequential: 5-12                  [64, 16, 4, 4]            544\n│    │    │    └─LeakyReLU: 4-16                        [64, 16, 4, 4]            --\n│    │    └─ResBlock: 3-5                               [64, 10, 2, 2]            --\n│    │    │    └─Sequential: 4-17                       [64, 10, 2, 2]            --\n│    │    │    │    └─ConvBlock: 5-13                   [64, 10, 4, 4]            1,460\n│    │    │    │    └─ConvBlock: 5-14                   [64, 10, 2, 2]            920\n│    │    │    └─AvgPool2d: 4-18                        [64, 16, 2, 2]            --\n│    │    │    └─ConvBlock: 4-19                        [64, 10, 2, 2]            --\n│    │    │    │    └─Sequential: 5-15                  [64, 10, 2, 2]            180\n│    │    │    └─LeakyReLU: 4-20                        [64, 10, 2, 2]            --\n│    │    └─Flatten: 3-6                                [64, 40]                  --\n=========================================================================================================\nTotal params: 28,992\nTrainable params: 28,992\nNon-trainable params: 0\nTotal mult-adds (Units.MEGABYTES): 228.65\n=========================================================================================================\nInput size (MB): 0.20\nForward/backward pass size (MB): 49.74\nParams size (MB): 0.12\nEstimated Total Size (MB): 50.06\n========================================================================================================="
…
init\n/user/s/slegroux/miniconda3/envs/nimrod/lib/python3.11/site-packages/lightning/pytorch/utilities/parsing.py:209: Attribute 'nnet' is an instance of `nn.Module` and is already saved during checkpointing. It is recommended to ignore them using `self.save_hyperparameters(ignore=['nnet'])`.\n\n\n==========================================================================================\nLayer (type:depth-idx)                   Output Shape              Param #\n==========================================================================================\nConvNet                                  [128, 10]                 --\n├─Sequential: 1-1                        [128, 10]                 --\n│    └─ConvLayer: 2-1                    [128, 8, 32, 32]          --\n│    │    └─Sequential: 3-1              [128, 8, 32, 32]          88\n│    └─ConvLayer: 2-2                    [128, 16, 16, 16]         --\n│    │    └─Sequential: 3-2              [128, 16, 16, 16]         1,184\n│    └─ConvLayer: 2-3                    [128, 32, 8, 8]           --\n│    │    └─Sequential: 3-3              [128, 32, 8, 8]           4,672\n│    └─ConvLayer: 2-4                    [128, 64, 4, 4]           --\n│    │    └─Sequential: 3-4              [128, 64, 4, 4]           18,560\n│    └─ConvLayer: 2-5                    [128, 128, 2, 2]          --\n│    │    └─Sequential: 3-5              [128, 128, 2, 2]          73,984\n│    └─ConvLayer: 2-6                    [128, 10, 1, 1]           --\n│    │    └─Sequential: 3-6              [128, 10, 1, 1]           11,540\n│    └─Flatten: 2-7                      [128, 10]                 --\n==========================================================================================\nTotal params: 110,028\nTrainable params: 110,028\nNon-trainable params: 0\nTotal mult-adds (Units.MEGABYTES): 161.97\n==========================================================================================\nInput size (MB): 0.52\nForward/backward pass size (MB): 32.53\nParams size (MB): 0.44\nEstimated
…
model(X).shape)\n# # flatten all dims except batch dim 1\nY = torch.flatten(model(X), 1)\nprint(Y.shape)\nsummary(model, input_size=(B, C, H, W), depth=2)\n\n[13:58:07] WARNING - setting conv bias back to False as Batchnorm is used\n\n\nY:  torch.Size([64, 16, 14, 14])\ntorch.Size([64, 3136])\n\n\n==========================================================================================\nLayer (type:depth-idx)                   Output Shape              Param #\n==========================================================================================\nConvBlock                                [64, 16, 14, 14]          --\n├─Sequential: 1-1                        [64, 16, 14, 14]          --\n│    └─Conv2d: 2-1                       [64, 16, 14, 14]          144\n│    └─BatchNorm2d: 2-2                  [64, 16, 14, 14]          32\n│    └─ReLU: 2-3                         [64, 16, 14, 14]          --\n==========================================================================================\nTotal params: 176\nTrainable params: 176\nNon-trainable params: 0\nTotal mult-adds (Units.MEGABYTES): 1.81\n==========================================================================================\nInput size (MB): 0.20\nForward/backward pass size (MB): 3.21\nParams size (MB): 0.00\nEstimated Total Size
…
model(X).shape)\n# # flatten all dims except batch dim 1\nY = torch.flatten(model(X), 1)\nprint(Y.shape)\nsummary(model, input_size=(B, C, H, W), depth=2)\n\n[13:58:16] WARNING - setting conv bias back to False as Batchnorm is used\n\n\nY:  torch.Size([64, 16, 14, 14])\ntorch.Size([64, 3136])\n\n\n==========================================================================================\nLayer (type:depth-idx)                   Output Shape              Param #\n==========================================================================================\nPreActivationConvBlock                   [64, 16, 14, 14]          --\n├─Sequential: 1-1                        [64, 16, 14, 14]          --\n│    └─BatchNorm2d: 2-1                  [64, 1, 28, 28]           2\n│    └─ReLU: 2-2                         [64, 1, 28, 28]           --\n│    └─Conv2d: 2-3                       [64, 16, 14, 14]          144\n==========================================================================================\nTotal params: 146\nTrainable params: 146\nNon-trainable params: 0\nTotal mult-adds (Units.MEGABYTES): 1.81\n==========================================================================================\nInput size (MB): 0.20\nForward/backward pass size (MB): 2.01\nParams size (MB): 0.00\nEstimated Total Size (MB): 2.21\n==========================================================================================",
…
es, # num_classes\n    kernel_size=3, # kernel size\n    bias=False, # conv2d bias\n    normalization=nn.BatchNorm2d, # normalization (before activation)\n    activation=nn.ReLU,\n)\nout = convnet(X)\nprint(out.shape)\nprint(summary(convnet, input_size=(X.shape), depth=2))\n\ntorch.Size([64, 20])\n==========================================================================================\nLayer (type:depth-idx)                   Output Shape              Param #\n==========================================================================================\nConvNet                                  [64, 20]                  --\n├─Sequential: 1-1                        [64, 20]                  --\n│    └─ConvBlock: 2-1                    [64, 8, 64, 64]           232\n│    └─ConvBlock: 2-2                    [64, 16, 32, 32]          1,184\n│    └─ConvBlock: 2-3                    [64, 32, 16, 16]          4,672\n│    └─ConvBlock: 2-4                    [64, 64, 8, 8]            18,560\n│    └─ConvBlock: 2-5                    [64, 128, 4, 4]           73,984\n│    └─ConvBlock: 2-6                    [64, 64, 2, 2]            73,856\n│    └─ConvBlock: 2-7                    [64, 20, 1, 1]            11,560\n│    └─Flatten: 2-8                      [64, 20]                  --\n==========================================================================================\nTotal params: 184,048\nTrainable params: 184,048\nNon-trainable params: 0\nTotal mult-adds (Units.MEGABYTES): 378.27\n==========================================================================================\nInput size (MB): 3.15\nForward/backward pass size (MB): 65.29\nParams size (MB): 0.74\nEstimated
…
H, W), depth=4)\n\n[16:29:17] INFO - Using device: mps\n\n\nmps\n{'_target_': 'nimrod.models.conv.ConvNet', 'n_features': [1, 8, 16, 32, 64], 'num_classes': 10, 'kernel_size': 3, 'bias': True, 'normalization': None, 'activation': {'_target_': 'hydra.utils.get_class', 'path': 'torch.nn.ReLU'}}\n\n\n==========================================================================================\nLayer (type:depth-idx)                   Output Shape              Param #\n==========================================================================================\nConvNet                                  [64, 40]                  --\n├─Sequential: 1-1                        [64, 40]                  --\n│    └─ConvLayer: 2-1                    [64, 8, 28, 28]           --\n│    │    └─Sequential: 3-1              [64, 8, 28, 28]           --\n│    │    │    └─Conv2d: 4-1             [64, 8, 28, 28]           80\n│    │    │    └─ReLU: 4-2               [64, 8, 28, 28]           --\n│    └─ConvLayer: 2-2                    [64, 16, 14, 14]          --\n│    │    └─Sequential: 3-2              [64, 16, 14, 14]          --\n│    │    │    └─Conv2d: 4-3             [64, 16, 14, 14]          1,168\n│    │    │    └─ReLU: 4-4               [64, 16, 14, 14]          --\n│    └─ConvLayer: 2-3                    [64, 32, 7, 7]            --\n│    │    └─Sequential: 3-3              [64, 32, 7, 7]            --\n│    │    │    └─Conv2d: 4-5             [64, 32, 7, 7]            4,640\n│    │    │    └─ReLU: 4-6               [64, 32, 7, 7]            --\n│    └─ConvLayer: 2-4                    [64, 64, 4, 4]            --\n│    │    └─Sequential: 3-4              [64, 64, 4, 4]            --\n│    │    │    └─Conv2d: 4-7             [64, 64, 4, 4]            18,496\n│    │    │    └─ReLU: 4-8               [64, 64, 4, 4]            --\n│    └─ConvLayer: 2-5                    [64, 10, 2, 2]            --\n│    │    └─Sequential: 3-5              [64, 10, 2, 2]            --\n│    │    │    └─Conv2d: 4-9             [64, 10, 2, 2]            5,770\n│    └─Flatten: 2-6                      [64, 40]                  --\n==========================================================================================\nTotal params: 30,154\nTrainable params: 30,154\nNon-trainable params: 0\nTotal mult-adds (Units.MEGABYTES): 53.63\n==========================================================================================\nInput size (MB): 0.20\nForward/backward pass size (MB): 6.16\nParams size (MB): 0.12\nEstimated Tot
…
 [3, 8, 16, 32, 64, 128, 64]\ncfg.nnet.n_features = feats_dim\ncfg.nnet.num_classes = 200\n\nmodel = instantiate(cfg.nnet)\n\n\nB, C, H, W = 64, 3, 64, 64\nX = torch.rand(B, C, H, W)\nX.shape\nprint(model(X).shape)\n\ntorch.Size([64, 200])\n\n\n\nsummary(model, input_size=(B, C, H, W), depth=2)\n\n==========================================================================================\nLayer (type:depth-idx)                   Output Shape              Param #\n==========================================================================================\nConvNet                                  [64, 200]                 --\n├─Sequential: 1-1                        [64, 200]                 --\n│    └─ConvBlock: 2-1                    [64, 8, 64, 64]           232\n│    └─ConvBlock: 2-2                    [64, 16, 32, 32]          1,184\n│    └─ConvBlock: 2-3                    [64, 32, 16, 16]          4,672\n│    └─ConvBlock: 2-4                    [64, 64, 8, 8]            18,560\n│    └─ConvBlock: 2-5                    [64, 128, 4, 4]           73,984\n│    └─ConvBlock: 2-6                    [64, 64, 2, 2]            73,856\n│    └─ConvBlock: 2-7                    [64, 200, 1, 1]           115,600\n│    └─Flatten: 2-8                      [64, 200]                 --\n==========================================================================================\nTotal params: 288,088\nTrainable params: 288,088\nNon-trainable params: 0\nTotal mult-adds (Units.MEGABYTES): 384.93\n==========================================================================================\nInput size (MB): 3.15\nForward/backward pass size (MB): 65.48\nParams size (MB): 1.15\nEstimated
…
